p1_navigation/Monkey_Q_Networks.pth (torch_old, 423523 bytes, 40 tensors)

layers.0.weight f4 [128, 37]
00000000: 8977 48c1 9a21 01c1 ec7e 583f bb38 25c1
00000010: 643f e0c1 cb96 73c1 ec5a 3940 ff11 eac0
00000020: 559d 25c1 53b4 ca40 2a07 0340 7d6d b9c0
00000030: 11cc 3ac1 4c10 60c0 fa74 303e 5c3e f7c0
00000040: 6ae1 4840 a561 07c1 9f6d 07c1 c23a 543f
00000050: b652 93bd 41e3 21c1 2842 6cc0 a43e 3dc1
00000060: 2832 9dc0 60b6 69c1 2f29 fdc0 655a a03f
00000070: b5e3 57c1 6155 c9bf cb84 7ac0 21da 20c1
00000080: 3fd6 17c0 ccf1 1dc1 46e2 dbc0 3cca 6a40
00000090: 83e6 2e3f 0587 b63f 7a19 c0c0 8380 a2c0
000000a0: 7a67 0bc0 9123 16c1 7e7b 56c1 702c 26c0
000000b0: fe53 85bf 6f94 2ec0 147f 58c1 cf4a fb40
000000c0: 9b8b 24c0 6ae7 8fc0 3b34 01c1 8c68 0ac1
000000d0: a238 e6be eab5 67c0 e418 c4c0 6df4 b23f
000000e0: ebc3 d4c1 0ff5 05c0 d663 0540 6273 99c0
000000f0: 94d2 bfc0 4db8 99be f7f8 b9c0 8cd4 9abf
00000100: 9343 043f 6865 08c1 e970 f5c0 7ca4 83c0
00000110: 544a 6bbf c6dc f83d 913f 1dc1 9b73 8fc1
00000120: fa46 0240 eb97 9e3c 7a3d 5abd 3ee2 ebbe
00000130: 3125 b1bf fd21 f53e 502d 19be be0d 6cbe
00000140: f630 03bf fd67 00bf 646b 9abf 8d21 59bf
00000150: 2595 5cbf ace5 77bf bd1d 40bf de69 753f
00000160: 5130 5abf 9ec4 3abf 4484 f23d 7001 87bf
00000170: cb87 23bd 223f 22bf dcac b0bf 90e0 9dbe
00000180: f293 03bf 51ec 59be ca61 3dbf 5cfd a6bf
00000190: 1138 aabf 1dd4 92bf 9fea de3d 22cf a8bd
000001a0: 4d97 d4be 2eb0 af3e bf1a c5bf f5ca c9bf
000001b0: f006 41bf 96d5 e03e 8bc9 38be b829 f5be
000001c0: aa3f cfbf 7d47 f3bd 4b82 21bf 38d1 f3bf
000001d0: f0d4 c73f 7473 aec0 ddd7 6b40 06e4 23c1
000001e0: 68e3 6bc2 4819 dbbf 8270 5dc0 4641 08c0
000001f0: c8f7 50c0 9041 5cc0 dd61 4a40 dcd3 75be
00000200: 6e57 2940 3733 58c0 df10 96c1 41f2 37bf
00000210: eca9 21bd e2d2 46be 5dc8 04c0 010b 87bf
00000220: 21f5 9d40 1d66 e1c0 6d63 e83f fd08 0cc1
00000230: bfc2 afc2 9e9f dbbf e837 14c0 39f0 74be
00000240: 595c 83bf 8411 6fbe 3d09 e33d 9f23 3f3f
00000250: 7f18 e5c0 5346 1c3f 443e 28c1 ba53 dc3d
00000260: e31b 8040 e10c b6be 8346 c6c0 f590 03c1
00000270: 30a6 563f 8599 78c0 7437 c2bf 9528 f3bf
00000280: f2e0 50c0 8a0b d73f c134 bbc0 ab96 1a3e
00000290: 664a 40c0 bba5 42c0 5138 31c0 61fb 80c0
000002a0: fbd0 a9bd 7cc2 64be 0546 08c0 5df6 dac0
000002b0: 7b5c 3cc1 cd67 32c0 8b9d 7ac0 520c 0e3f
000002c0: f815 79c0 c32b 8a3f 6ea5 00c1 35ff 0f3f
000002d0: 2cdc 583f fcd3 15c1 f087 16c0 6317 a1bf
000002e0: 6109 17bf 376b 9b40 93e6 5540 b595 1940
000002f0: f42f 96bf 5242 c5c1 0ae5 94c0 1538 7540
00000300: ee78 a43f 672d 14c0 7b22 3fc1 b554 f3c0
00000310: 6109 d0be 7e74 f4bf 65b8 3fbf f173 bcc0
00000320: 1a05 09bf 900d b840 f234 fe3e 0ef5 86c0
00000330: 48c1 12c2 8b1e 3cc0 36bb 1540 38ea 013f
00000340: 3507 efc0 8207 80be a4b7 a1bf 6a5e 2540
00000350: b7d1 61bf 97f1 2bc1 e1c2 c8c1 56bf 8d3f
00000360: ba06 5440 8b09 26bf 3bf6 1bc1 07d1 d5c0
00000370: e490 b33f ba37 21bf 8fb7 2dbf 26ba d0be
00000380: d397 a2be 3fa9 4e3e 3570 43bf d613 fcbe
00000390: 2fbe 3fbe e8cf 61be ccc2 61bf 1967 e6bd
000003a0: d4a4 f0be 8429 b9be b255 b3be b501 18bf
000003b0: fb72 d4be 8a3e 15bf d72d c2be 7a1d 42bf
000003c0: c5af 333d d768 27bf 8b3d dabe a1ee 8dbe
000003d0: 361b 59bf a22c cbbd 7973 0bbf dd05 05bf
000003e0: ac37 4fbe 6467 72bf d7dc eb3d d465 26bf
000003f0: be2d 00bf 0836 3b3e 2a87 52bf da76 3dbf
-12.529183 -8.0707035 0.8456867 -10.32635 -28.030952 -15.224315 2.8961744 -7.314697
-10.350911 6.334512 2.0473123 -5.7946153 -11.674821 -3.5009947 0.17232123 -7.726362
3.1387582 -8.461339 -8.464263 0.8290216 -0.0719351 -10.117982 -3.6915379 -11.827793
-4.9123726 -14.607025 -7.9112773 1.2527586 -13.493093 -1.572918 -3.914355 -10.053254
-2.3724515 -9.871532 -6.8713713 3.6685934 0.6832048 1.4259955 -6.00311 -5.0781875
-2.1781907 -9.383683 -13.405149 -2.5964622 -1.0416257 -2.7278097 -13.531025 7.852882
-2.5710208 -4.496999 -8.075252 -8.650524 -0.44965082 -3.6204782 -6.1280384 1.3980843
-26.595663 -2.0930822 2.0842185 -4.795335 -5.9944553 -0.30023423 -5.811641 -1.2096114
0.5166561 -8.524757 -7.670033 -4.1138287 -0.9191029 0.12151484 -9.828019 -17.931448
2.035582 0.01935955 -0.053281285 -0.46071047 -1.3839475 0.47877494 -0.14958692 -0.23052117
-0.51246583 -0.50158674 -1.2064023 -0.8481682 -0.86165076 -0.96834826 -0.75045377 0.95864666
-0.85229975 -0.72956264 0.11841634 -1.0547314 -0.039924424 -0.63377583 -1.3802752 -0.3083539
-0.5139762 -0.21281554 -0.7397734 -1.3046069 -1.329836 -1.1470982 0.10884594 -0.082426324
-0.41521683 0.34314102 -1.5398787 -1.5765063 -0.7540121 0.43912953 -0.18045633 -0.4788339
-1.6191304 -0.1187887 -0.63089436 -1.9048223 1.5611858 -5.4515934 3.6850502 -10.24317
-58.972076 -1.711709 -3.459992 -2.128984 -3.2651234 -3.4415016 3.162223 -0.24006599
2.6459613 -3.378126 -18.758238 -0.71854025 -0.03946869 -0.19416383 -2.0747292 -1.0550233
4.936173 -7.043715 1.8155342 -8.752194 -87.88036 -1.7158086 -2.3159122 -0.23919763
-1.0262557 -0.23346525 0.110857464 0.7466373 -7.1592402 0.61044806 -10.515202 0.10758157
4.003404 -0.355567 -6.1961074 -8.22289 0.8384733 -3.88437 -1.5173173 -1.899676
-3.2637296 1.6800396 -5.8501897 0.15096538 -3.004541 -3.0413654 -2.7690623 -4.030686
-0.08291813 -0.22339815 -2.1292737 -6.8425736 -11.772578 -2.7875855 -3.9158657 0.5548755
-3.8919659 1.0794605 -8.040388 0.5624879 0.84710956 -9.364254 -2.352047 -1.2585262
-0.58998686 4.8568377 3.3421981 2.3997624 -1.1733384 -24.657383 -4.652959 3.831548
1.2849405 -2.3152711 -11.945918 -7.60409 -0.40632156 -1.909805 -0.7489074 -5.889153
-0.5352341 5.7516556 0.4964977 -4.217414 -36.68875 -2.9393642 2.3395514 0.50748014
-7.46963 -0.25005728 -1.2634168 2.5838876 -0.88210624 -10.746482 -25.095156 1.1074016
3.3129106 -0.6485831 -9.747615 -6.681766 1.4028592 -0.62975657 -0.67858213 -0.4076702
-0.31756458 0.2018175 -0.7634309 -0.49233884 -0.18724893 -0.22051966 -0.8818786 -0.11250133
-0.47000754 -0.36164486 -0.35026318 -0.59377605 -0.41493973 -0.5829855 -0.37925598 -0.7582623
0.0438688 -0.6539435 -0.4262508 -0.27721122 -0.84807146 -0.099206224 -0.5447307 -0.5196207
-0.20236081 -0.9468901 0.11516731 -0.6499913 -0.500698 0.1828233 -0.82237494 -0.7400948

layers.0.bias f4 [128]
00000000: 520c a3c0 5de5 b4c0 a750 97bf d918 eb3f
00000010: 29d4 88c0 381a 5cc0 6d49 37bf 5727 08c0
00000020: 44c0 75c0 9048 78c0 029d d7be 4d3c 7abf
00000030: 1c7a 31c0 8cc0 b1bf 7f8c 87bf 9cc3 b3be
00000040: 09c2 953f 4b6b 47c0 888e 56c0 3dee 7cbf
00000050: c3f6 85bf d460 0bc0 34b8 57bf 6e12 37c0
00000060: 7552 d9bf 6c45 17bf 5796 65bf 30f5 a33f
00000070: 1a52 11c0 a9c9 cabe c789 c43f 0414 0140
00000080: 6a68 3a40 cb72 e5bf a5ac c03f 6b35 1bbf
00000090: 0e6d a03f b5e8 3dc0 3a42 8bc0 5482 acc0
000000a0: b33a 24bf 8874 a9bf 8761 22bf 6aea 2940
000000b0: 636a afc0 707f 1abf 7e14 29be cec4 35be
000000c0: e7d5 07c0 898f 41bf 78f0 b3be ee36 853f
000000d0: fcbe b9bf bae3 adbe f34a 79bf 058f 92c0
000000e0: 8130 dbbe 2531 17bf 37a2 2840 dfee 3ec0
000000f0: d127 9b3e 6380 0fc0 09e8 88c0 51ec cbbd
00000100: 7084 80c0 fa7d bdc0 a39f 1ebf c747 95c0
00000110: 061a e0be 4441 cdbf 5896 2dbf a66d 45c0
00000120: 71c6 85c0 09a0 fb3f 3b27 41c0 dfa3 3fbf
00000130: b974 03be e9a7 86c0 4ef3 7bc0 11d1 1ec0
00000140: f862 5cc0 af48 47c0 411f 0640 03fa 05bf
00000150: 7f6f 2bbf e45e 8abe a27d 91c0 9580 0bc1
00000160: 895a 95c0 ad05 c4c0 7f8f dabe 5084 0abe
00000170: 0299 1fbf c3f0 91c0 2b01 6fc0 cc6a 64c0
00000180: 2d7f 22bf 3afa a2c0 d67d 78bf 81e7 c43f
00000190: 3537 0a3f 02ca b6c0 1006 51bf 03ee 91c0
000001a0: e62f 18c0 2e6e 563f 6f2d 15c0 b23c 723f
000001b0: ba10 efbe db13 50bf cc71 793f fa64 63bf
000001c0: 4bb9 adc0 ab5b d5bf 9ca8 5fbf 6655 9cbf
000001d0: 752d b3c0 8e9a 24bf 687f adbe 118c 41bf
000001e0: 4afc a0c0 7114 80c0 6e51 a0bf 6a90 04be
000001f0: 56a8 d6bf c24a f1bf 8873 03be ef2e c8bf
-5.095254 -5.6529984 -1.1821488 1.8366958 -4.2758985 -3.4391003 -0.71596414 -2.127401
-3.83986 -3.8794289 -0.42111975 -0.9774826 -2.773078 -1.3886886 -1.0589751 -0.35110176
1.169984 -3.1159236 -3.3524494 -0.9880102 -1.0465931 -2.177785 -0.84265447 -2.8604999
-1.6978289 -0.59090304 -0.89682525 1.28092 -2.270636 -0.3960698 1.5354546 2.0168467
2.912623 -1.7925657 1.5052687 -0.60628384 1.2533281 -2.9673283 -4.3518343 -5.390909
-0.6415207 -1.3238688 -0.63430065 2.6549325 -5.4817367 -0.60350704 -0.16511723 -0.17750856
-2.1224306 -0.7560964 -0.351444 1.0407388 -1.4511409 -0.33962804 -0.9737999 -4.5799584
-0.42810443 -0.59059364 2.6349008 -2.9833295 0.30303815 -2.242211 -4.2783246 -0.09957183
-4.0161667 -5.921628 -0.61962336 -4.665012 -0.43769854 -1.6035542 -0.6780753 -3.0848174
-4.180474 1.9658214 -3.0180194 -0.7485942 -0.12837495 -4.207997 -3.9367251 -2.4815104
-3.4435406 -3.1138113 2.0956576 -0.5233461 -0.66967005 -0.2702552 -4.546586 -8.718892
-4.6673017 -6.125693 -0.42687604 -0.13527036 -0.62342846 -4.56064 -3.7344463 -3.5690184
-0.63475305 -5.093045 -0.9706701 1.5383149 0.5399049 -5.712159 -0.81649876 -4.560304
-2.3779235 0.8376187 -2.330898 0.94623864 -0.4669245 -0.812803 0.97439265 -0.88825953
-5.428869 -1.66686 -0.8736665 -1.2213562 -5.599299 -0.6429833 -0.33886266 -0.7560435
-5.030797 -4.0024953 -1.252485 -0.12945715 -1.6770122 -1.8850939 -0.1283704 -1.5639323

layers.2.weight f4 [64, 128]
00000000: e9d8 933c 95ba 3ebd ae8d 34be 4f78 ebbc
00000010: ee1f 88bd 9260 d8bd 36ba aebc 84fa 26bd
00000020: 8b6f 00be 64cc b0bd 7fa0 33be 8fe2 663b
00000030: a015 9cbe 296f 65bc 7d7b cebd 347c 9ebc
00000040: 1761 e1bd 40eb 8e3c 602f a2bd 8e06 7c3d
00000050: 37a7 f43c 7992 07bd e99c c33c 0538 9ebc
00000060: 3e77 323c 353a 8f3c 97df 693d fb76 3abd
00000070: c64d 8bbd 549a 2cbd 28b6 8abd 2a14 cabc
00000080: 1a04 0dbe 2e58 bdbc 5128 a2bd 45b6 71bd
00000090: 1322 90be 7c3c b6bd ca3f b1bd 51cf 833b
000000a0: 6d5b 9abc 64bf c8bd f8e3 58bc f9d3 92be
000000b0: aaff f4bd 116f aabc 12b8 5bbb d2b0 2c3d
000000c0: 3d53 423d b815 fbbd da4f f4bd 6fcb babc
000000d0: 237b 13bd 527f 07be e7a6 e0bd acff 4cbd
000000e0: 864b 2abd 4c9e 53bd a038 40bd 18a8 0a3d
000000f0: 3ead 45bd 0b1b c2bd 3060 a13c fad9 263d
00000100: 8310 c2bd 97f3 a53c 769a 8cbc 97c4 c0bd
00000110: 953c 82bd b6dc b6bd 52f3 573d ccc5 57be
00000120: 2a1f 013d b52e d1bd 9c04 a3bd 0434 88bc
00000130: 5371 1bbc 4d26 c3bb d341 fbba 6593 afbd
00000140: bfc3 d8bb c031 3bbd 1feb febc 72bd a7bd
00000150: f3f2 d9bd d0ad 243b 3347 f8bd 2e80 79bd
00000160: f59d 12bd 395b cdbd 7bb1 e33c 8682 a4bd
00000170: 0b41 d8bb 8871 3dbc 3c7d 5fbd a7f9 a5bd
00000180: 3f05 753c 50d7 b4bd 04d5 39bd c39f 85be
00000190: 19d7 6cbd 716a abbd 445d 9bbc 7582 53bd
000001a0: 9143 9bbd 956c 9f3d b86a 20bd 9881 acbd
000001b0: 9b9a e0bc 6ebb 32bd 94e7 043d 526c 333d
000001c0: 7789 8d3c bc4a 383d 93ff 8d3d f378 2fbd
000001d0: e0f9 bebc 802f 79bb 4a68 f0bd 14fd debd
000001e0: 0411 8cbe ba41 dcbd 7e46 f53c 9f4a 483c
000001f0: b6ff 4d3d fe4f 4dbc de2e e6bb 495d 6abe
00000200: 487b 0741 70f8 26c0 1d79 8cbe 938b 2640
00000210: a8da a13f 9cf1 63bf d2ae 02bf 175f d53e
00000220: cc65 0bc0 f102 4840 b124 17bf ee2e 393d
00000230: 8ffc ed3d 639b 2fbf 7108 5c3f c093 9b3c
00000240: f21b a0bf 7027 b2be 47d8 3c3f df67 103e
00000250: dbad 323d f181 03c0 57ba e6bc d5a3 a040
00000260: 8e3a c0bd cce1 ac3e ac9e dcbd 5d3b 3741
00000270: 72b5 02bf 19ec 753b 0b92 f0bf 10b4 9ebf
00000280: ac19 93c0 1888 4b40 da10 5440 9cde e4bd
00000290: 856d 1940 00ad 0140 4937 2340 cf91 b340
000002a0: 1f36 96bf 3617 2f3d ac89 01bd 4b24 15c0
000002b0: 8cca 863f 0c82 c8bd 3f2a 1dbd ded2 05bc
000002c0: b8e0 2340 236f f3bd d028 e9bd c19a 753e
000002d0: bdcd 1541 91d9 f4bd 9831 a1bd b1e7 05c0
000002e0: 2577 d4bd cea0 08be 4886 9a3e e4ce b4c0
000002f0: 6d1b 47be dc95 9040 111f d3bf dbbc 643c
00000300: 7b6a f940 d718 01c0 e271 0ebd bc9b 58c1
00000310: c110 c8bd cf71 6b40 3ce0 8cbd 24df c640
00000320: aa30 7cc0 dd21 d240 a9f8 59c1 5c63 933f
00000330: 8b90 18bd b8e2 8dc0 0844 7cc0 6362 22c1
00000340: 694a a1bf 8c13 1941 0e89 dcbf ceb6 32bd
00000350: 1329 76bd d5a3 49bd 4c2e 58c1 af01 40c0
00000360: e8c7 1840 ce6d 55c0 72e0 c5bd f92b a43c
00000370: 6942 01be 59f1 92c0 0538 c43f 6d6d 5040
00000380: d32e 263b eec9 973f 32dc 82bd a587 373e
00000390: 4ab1 dfbf 1056 b9bf 02bd 2bbd 77fa 7fc0
000003a0: a344 f7c0 cda2 9d3e be75 92c0 42d3 1040
000003b0: 0d76 b63c 2c68 aebd 7a7e 41bf 8fec 0bbe
000003c0: e9c1 26c1 facc 9e40 d6ca a1be 560c 053d
000003d0: a65b 7d40 0138 d9bd 7002 a2bd e58b 97bd
000003e0: 87b9 b73f 9652 f8be da94 a83c 4f57 6e3b
000003f0: 6f61 8bc0 8a40 9040 42ed bfbc 7d44 aac0
0.018047767 -0.046564657 -0.17632172 -0.028743891 -0.06646715 -0.10565294 -0.021329027 -0.040766254
-0.1254255 -0.086327344 -0.17541693 0.0035230254 -0.3048525 -0.014003553 -0.10082147 -0.019346334
-0.110048465 0.01744616 -0.07919192 0.06152969 0.02986489 -0.03309867 0.023878532 -0.019313822
0.010892687 0.01748381 0.057097998 -0.045523625 -0.068019435 -0.042139366 -0.06773025 -0.024667818
-0.13771096 -0.023113336 -0.07917846 -0.059011716 -0.28150997 -0.08898255 -0.08654745 0.004022517
-0.018842423 -0.0980213 -0.013237946 -0.28677347 -0.119628266 -0.020804914 -0.0033526463 0.042160816
0.047442663 -0.12260002 -0.11929293 -0.022802083 -0.036006104 -0.13232163 -0.10969334 -0.050048515
-0.04157593 -0.051664636 -0.046929 0.033851713 -0.04826092 -0.09477814 0.019699186 0.040735222
-0.094758056 0.020257754 -0.017163496 -0.094124965 -0.06359211 -0.08928816 0.052722283 -0.21071547
0.03152386 -0.10213987 -0.079598635 -0.016626365 -0.009487468 -0.0059554935 -0.0019169397 -0.08573035
-0.0066151316 -0.045701742 -0.031117974 -0.08190431 -0.10642042 0.0025128014 -0.12122955 -0.060913257
-0.03579517 -0.10027165 0.02779459 -0.08032708 -0.0065995506 -0.0115627125 -0.054562792 -0.08104258
0.014954864 -0.0883013 -0.045369163 -0.2609845 -0.05782232 -0.083699115 -0.018965371 -0.051638085
-0.07581247 0.07784382 -0.039164275 -0.084231555 -0.027417472 -0.043635778 0.032447413 0.043804474
0.017277462 0.044993147 0.069335125 -0.042839956 -0.023312509 -0.0038022697 -0.117386416 -0.108881146
-0.27356732 -0.10754724 0.02994084 0.012224822 0.050292693 -0.012531279 -0.00702463 -0.22887148
8.467598 -2.6089134 -0.27436152 2.602269 1.2644854 -0.8904054 -0.51048005 0.4167411
-2.1780882 3.1251795 -0.5904036 0.04521077 0.11620437 -0.68596476 0.8595038 0.018991351
-1.2508528 -0.34795713 0.73767513 0.14102124 0.043622833 -2.054806 -0.028165026 5.019999
-0.093861684 0.3376602 -0.10772452 11.451993 -0.51058114 0.0037524758 -1.8794569 -1.2398701
-4.596884 3.1801815 3.3135285 -0.11175272 2.3973095 2.026184 2.5502493 5.611549
-1.1735266 0.042746745 -0.031625435 -2.3303401 1.0530562 -0.097904295 -0.038370367 -0.00816795
2.5605907 -0.11886432 -0.113847375 0.23984815 9.362729 -0.1195556 -0.078707874 -2.0922663
-0.103742875 -0.13342592 0.30180573 -5.650255 -0.19444056 4.5182934 -1.6493856 0.013961042
7.794248 -2.017141 -0.034776576 -13.538021 -0.097688206 3.6788213 -0.06878707 6.214739
-3.9404702 6.5666337 -13.623208 1.1514697 -0.037247222 -4.4339256 -3.9416523 -10.14902
-1.2600833 9.567272 -1.7229326 -0.043631367 -0.060097765 -0.049228508 -13.511303 -3.0001028
2.3872013 -3.334827 -0.0966195 0.020040499 -0.1262299 -4.5919614 1.5329596 3.2566788
0.00253575 1.1858499 -0.06389655 0.17922838 -1.7475979 -1.4479389 -0.0419283 -3.9996622
-7.7271285 0.3078827 -4.576873 2.2628942 0.022273088 -0.08515963 -0.7558361 -0.13664459
-10.422341 4.9625216 -0.31600064 0.032482468 3.9587188 -0.10606385 -0.07910621 -0.0739973
1.4353493 -0.48500508 0.02057879 0.0036367958 -4.3556437 4.5078783 -0.023428563 -5.3208604

layers.2.bias f4 [64]
00000000: 50ac fbbe 945b 3940 5599 63bf c666 edc1
00000010: 8c6f 8cbe 9707 32bf 08de fbbe be93 07bf
00000020: 3aa0 cebe b17d c1be fa7a 04bf d3a2 83be
00000030: 6e33 88be b2ad 2bc0 824e 2ebe 6e92 86bf
00000040: 9d42 99c0 b6ed f7bd 3c7a 65c0 5afe 95bf
00000050: 6f4d 34bf aa65 02bf 843b 42c0 79ec 6cbf
00000060: 1ada 7fc0 3f6c 45c0 b9d8 cdc0 15da 77be
00000070: b100 d8be 4b86 50bf cdf5 c3be a856 88c0
00000080: d71b cabe a36b 1ebf 0088 95c0 a0bb 17bf
00000090: 863b 02c0 9a0d 1fc0 5ad7 70be 13f0 f3be
000000a0: c89c bbc0 335f bec0 a869 78c0 c57c 3e41
000000b0: dd92 3abf c025 32bf 58fd 96c0 4573 0b3f
000000c0: 8e14 0641 7850 cabf ce56 60bf 0209 6dc0
000000d0: c7b1 80be 746a dbbe f880 9c40 64f4 91c0
000000e0: 260b c3bf ce8f 66c0 0b5e 84c1 851c 86bf
000000f0: b85b 89bf 85a7 d7be ede2 b9be 0074 a4c0
-0.49154902 2.8962145 -0.8890584 -29.675182 -0.27428854 -0.6954283 -0.49192834 -0.5295981
-0.40356618 -0.37791207 -0.5175015 -0.25710163 -0.26601738 -2.6824765 -0.17022136 -1.0513437
-4.7893815 -0.12105887 -3.5855856 -1.1718247 -0.70430654 -0.5093638 -3.0348825 -0.9254833
-3.9976869 -3.0847318 -6.4327054 -0.24204285 -0.42188028 -0.81454915 -0.3827347 -4.260578
-0.39474365 -0.6188299 -4.6728516 -0.5927067 -2.034883 -2.4852052 -0.2351965 -0.476441
-5.8628883 -5.949121 -3.8814487 11.905461 -0.72880346 -0.6958885 -4.7184258 0.5447276
8.380018 -1.5805807 -0.87632453 -3.7036748 -0.25135633 -0.42854655 4.8907433 -4.561083
-1.5237777 -3.6025271 -16.54592 -1.0477453 -1.0731115 -0.42119995 -0.36305943 -5.13916

layers.4.weight f4 [64, 64]
00000000: 48fe 4dbd e4c0 04bf d577 f03b 6fd9 a6be
00000010: 3d33 9bbd 6b0c 10bc 50ff 8f3d 215b 683d
00000020: f053 423d 94a1 df3a ebca 7a3d 3e24 acbc
00000030: beeb 193e c287 61be 10f1 dbbd 38f2 e2bb
00000040: 9da3 b4be b8a9 00be 3153 e5bd 16af 3ebe
00000050: 9b91 14bd dd50 663c 68bc 23bf 2562 b7bc
00000060: a803 5fbe 243f f1be 3c42 00be aaae 37be
00000070: 5148 29be 6ebd 2abe 9119 813e 8475 07bf
00000080: 6323 f1bd ca2b 973c d797 15bd 9aea 8abd
00000090: f42b 16bd ec88 a7bf 33f4 903c fa45 6b3e
000000a0: 924b 2c3e 2eff b6be 1f0d 0dbd 380b 33bf
000000b0: 6d69 573d b1ce cbbd a7c2 0dbf 8cec 6cbe
000000c0: cd7f 98bf 73a2 8a3e 00f2 fcbd 0a15 cabe
000000d0: f38a c03d 744a 9ebd 943f 39bf 91c4 d1be
000000e0: 2f70 6dbe 0456 ccbd c13a 1f3d 6905 a7be
000000f0: 89b0 763c ce8d adbd c9e9 cd3d be86 9ebd
00000100: 5261 a8bd a0b0 11bf 6d3f 0d3b 535c eebe
00000110: f4f0 d63d 3200 debd 952c 8a3d 79cf 2e3d
00000120: 0cdf 6abd 9ec9 d9bd a8d3 f4bd 40e1 c93d
00000130: 4eee 973d e3b6 32bc 9f72 5fbd 731a 11bf
00000140: aaf4 2dbe 929b 7dbd 1b49 81bd 6ee7 92bd
00000150: d6a0 57bb 6054 a8bd 3c6c a2bd 606c e8bc
00000160: a072 2fbd 2816 c3be 37ec 0cbe 522a 0abd
00000170: a020 483c 6b4b 4cbd 491e 1b3d 5b2c 6dbd
00000180: 474e 993d b28d ab3c f75b 8e3c 18f7 e4bc
00000190: 2e1f bfbd ffcb 23bd 73a0 90bc 9b1f 783d
000001a0: 7899 98bd 907c 57bc 3de5 113d e9be 44bf
000001b0: 248c a6bb 9889 9dbe 875d b0be 8e13 44be
000001c0: a2d5 b6be 5288 f5bc 6659 88bd bf0e c2bd
000001d0: 7dec 963d a6d0 b33d b35e 0ebf 0c41 86be
000001e0: 52b5 34be 7b7d 5fbd 250e acbe 2e0b ad3c
000001f0: dcbe bcbb e811 49bd 6dd4 52bc ac07 5a3d
00000200: 8fdb de3a c432 3fbe 890f 173e 4d31 5cbf
00000210: bb4b e63d 8bdc 7f3c d61b 4abc 1a74 873d
00000220: d5bc 3bbd ebc7 5f3d 1541 90bd 2075 143e
00000230: 8e40 42bd 7611 7bbe b4be 85bc 85d7 07be
00000240: 17f4 99be 88bd 8ebd 93c7 b23c bc54 48be
00000250: ef24 c13c ed4f 303d 2981 a2be 2492 b63d
00000260: 5093 50be f323 94bf 6288 2fbd 6c69 153d
00000270: db60 8dbd 1207 ad3d 5abf 29be f05a 8e3b
00000280: 310d 43bd fd61 94bd a058 1cbe c783 b03d
00000290: 506d 06bd f996 d3bd 0a5b f43d 3651 ad3d
000002a0: 900a 3a3d f66f 1a3c e407 94be 6354 7ebf
000002b0: eb27 84bd 1c3c 5abd 6de4 73be 34db f6bd
000002c0: 2b20 7ebf 8282 71be 2f6a 94bd 2c0f d93c
000002d0: 20f6 343e d7f8 a73d 23bb 28bf 76c3 d6be
000002e0: f511 c3be 6b37 ebbe 300d e1be b4f8 9ebe
000002f0: c125 183e 7fd2 b43d 3aa2 cbbd 673e d43d
00000300: dc98 93bd d5f7 78bf 5f10 9e3c e38a e4bd
00000310: aa92 913d ea26 67bd 0369 cebd d9c9 16be
00000320: 229c 693c e65e 83bd 645e 863d b262 18be
00000330: 2259 2bbe 7157 a2bc ee0f 9cbc 7747 0fbf
00000340: 4a29 19bf 24e5 34be ff62 96bd afe3 8dbd
00000350: 2809 083d 3a1c d23c a82d 30bc e005 9cbd
00000360: 3070 c5bd 7c75 78bf 2f3f 0ebe cf8e 7ebd
00000370: a65a 223d fc28 e2bd ee5a 2dbe d0e4 95bc
00000380: 618b 913c b5dd 00be 3449 febd cde2 c3bd
00000390: 839d 87be fa99 3fbe 70c4 d7bd 990b 05be
000003a0: b02a 09bd a6ce 1ebe a4a9 eebe 4f1d 9ebf
000003b0: 1b66 c8bc 13d8 93be b584 28bf 084e 563a
000003c0: 02c8 81bf e039 d9bd 96c3 9fbc f0e0 efbd
000003d0: 2e5f f33c 392d e5bd 6691 f9bf efec 16be
000003e0: d73c 12be 5a0f 34bf 1a28 d3be 430f 14be
000003f0: a32c 2c3d b7d3 abbd 45a2 0bbc ecf6 84bd
-0.05029133 -0.5185683 0.007338504 -0.32587764 -0.07578132 -0.008792023 0.07031119 0.056727532
0.04744333 0.0017061704 0.061228674 -0.021013375 0.15031335 -0.22024444 -0.107393384 -0.0069258474
-0.35281077 -0.12564743 -0.11197508 -0.18621477 -0.036271673 0.014057365 -0.6395936 -0.022385666
-0.21778738 -0.47118485 -0.12525266 -0.17937723 -0.16531493 -0.16673824 0.25214818 -0.5291369
-0.117743276 0.018453497 -0.03652176 -0.06783028 -0.03666301 -1.308866 0.017694568 0.22975913
0.16825703 -0.35741562 -0.03443634 -0.69938993 0.052590776 -0.09951533 -0.5537514 -0.2313711
-1.1914002 0.27077064 -0.12350845 -0.39469177 0.094015025 -0.077290446 -0.7236264 -0.4097028
-0.23187326 -0.09977344 0.03887439 -0.32621315 0.015056738 -0.08474313 0.100543566 -0.07740544
-0.082216874 -0.56910133 0.0021552697 -0.46554813 0.10495177 -0.10839881 0.067467846 0.04267833
-0.05734162 -0.106341586 -0.11954433 0.09857416 0.074185 -0.010907861 -0.05455267 -0.56680983
-0.16987863 -0.06191594 -0.06312772 -0.07173048 -0.0032902262 -0.08219218 -0.079308 -0.02837199
-0.042833924 -0.3810284 -0.13761984 -0.033731766 0.01221481 -0.04987661 0.03787068 -0.05790363
0.07485633 0.020941589 0.017377837 -0.027949855 -0.09332119 -0.039989468 -0.017654633 0.060577016
-0.07451147 -0.013152257 0.03561901 -0.76853806 -0.005082624 -0.30769038 -0.34446356 -0.19148085
-0.35709864 -0.02997223 -0.066576764 -0.09475469 0.07369325 0.08780031 -0.5561325 -0.26221502
-0.17647293 -0.054563027 -0.3360454 0.021123495 -0.005760057 -0.049089342 -0.012868029 0.053229973
0.001700269 -0.1867171 0.1475202 -0.8601273 0.11244913 0.015616546 -0.012335738 0.066139415
-0.04583438 0.054634016 -0.070436634 0.14497805 -0.047424845 -0.2451838 -0.016326286 -0.13265808
-0.30069038 -0.06969744 0.02182368 -0.19563574 0.023577182 0.043044973 -0.31739166 0.08914593
-0.20368695 -1.1573471 -0.042854674 0.03647749 -0.06903239 0.08448614 -0.16576901 0.0043443367
-0.047620002 -0.07245252 -0.15268183 0.086188845 -0.032819092 -0.1033153 0.11931427 0.084627554
0.04542023 0.009426108 -0.2891227 -0.99347514 -0.06452926 -0.05327998 -0.23817606 -0.120535284
-0.99267834 -0.23584941 -0.072468154 0.026496492 0.17672014 0.08201759 -0.6591055 -0.41946
-0.38099638 -0.45940718 -0.43955374 -0.3104912 0.14858152 0.088292114 -0.09943052 0.10363465
-0.0720689 -0.9725316 0.019294916 -0.11159303 0.07108052 -0.056433596 -0.10078623 -0.14725436
0.014258416 -0.06414585 0.06560972 -0.148814 -0.1673322 -0.019817086 -0.019050565 -0.5596842
-0.5982863 -0.17665535 -0.07343101 -0.06928193 0.033211857 0.025648225 -0.010753073 -0.07618308
-0.09640539 -0.97054267 -0.1389129 -0.06214791 0.03963723 -0.110429734 -0.16929218 -0.018297583
0.017766656 -0.12584575 -0.12416306 -0.09564743 -0.2648736 -0.18711081 -0.10535514 -0.12992705
-0.033487976 -0.15508518 -0.466138 -1.2352694 -0.02446275 -0.2887579 -0.65827495 0.000817508
-1.0139163 -0.10606742 -0.019502442 -0.11712825 0.029708471 -0.11190266 -1.9497497 -0.1473882
-0.14281021 -0.70335925 -0.41241533 -0.14458947 0.042034756 -0.08389991 -0.008522575 -0.06492409

layers.4.bias f4 [64]
00000000: c629 1dc0 6fd0 00c0 79c1 09c0 fbd8 a9bf
00000010: bbc5 1cc0 fa9c 99bf 34ff aabf c287 93c0
00000020: 3e42 76c0 7215 c0bf b1cf 1abf 0dff 27c0
00000030: d475 9ebf 2450 e8bf da06 70bf 5ac8 78c0
00000040: d08a 5cc0 4d45 21c0 5cdf 01c2 1743 23c1
00000050: 0bf0 f3bf 92b0 19c0 c217 2cc0 9c6e 84c0
00000060: 6bd5 03c0 5943 2dc0 3a6d d8bf 5f63 bdbf
00000070: 63ea 0ac1 6799 cbc0 982e 33c2 01b1 d8bf
00000080: 5fcb 05c1 44bd 91bf f3cd 11c0 7e9a 0ec0
00000090: ffc9 87bf f68b b0bf c33f 18c0 ac6c 0ac0
000000a0: 7ca0 d0bf fcc0 8fbf b314 a0c0 ee49 54c0
000000b0: fc80 fcbf e114 e83f 6dcd d6bf 0229 ecbf
000000c0: 9629 00c0 0a25 15c0 0bbe 4fc0 db69 49bf
000000d0: a589 0fc0 7991 eabf ed2f 05c0 4179 77c0
000000e0: e64a 16c0 36e4 0ec0 e907 e6bf 0d30 afc0
000000f0: 0e5c febf c7d7 5bc0 3c98 febf b6b6 b240
-2.4556746 -2.0127218 -2.1524336 -1.3269342 -2.4495685 -1.200103 -1.3359132 -4.610322
-3.847793 -1.5006545 -0.6047316 -2.624942 -1.2379708 -1.8149457 -0.93760455 -3.8872285
-3.4459724 -2.5198548 -32.468124 -10.203879 -1.905763 -2.401402 -2.68895 -4.138502
-2.059901 -2.7072356 -1.6908333 -1.4795951 -8.682223 -6.362476 -44.7955 -1.6929017
-8.362151 -1.1385884 -2.2781951 -2.2281795 -1.0608519 -1.3792713 -2.3788917 -2.1628828
-1.6298976 -1.1230769 -5.0025268 -3.3170123 -1.9726863 1.8131372 -1.6781441 -1.8450015
-2.0025382 -2.3303857 -3.2459743 -0.7867715 -2.2427762 -1.8325645 -2.0810502 -3.8667758
-2.3483214 -2.232679 -1.7971164 -5.4746156 -1.9871843 -3.435045 -1.9890208 5.5848036

layers.6.weight f4 [128, 64]
00000000: bce8 e7bc 59af 413d 0d4b 9ebd 73d4 a0bd
00000010: ba3a 35be 3d84 e2bd 0c17 16be 60c2 b9bd
00000020: 0fea 81be 32e1 28be e9e2 96bc 379d 5fbd
00000030: 74d3 103e ecd1 dfbb c90e cebd fd40 ffbd
00000040: d8d7 3fbe 5a17 e1bd a597 34be ea47 2ebe
00000050: e7b5 913c eb27 a9be a6b7 9a3b 8cba 3b3c
00000060: 3651 c6bd b185 0abe 3a87 bfbd 107f 0dbe
00000070: 4137 65bf 00a1 75be d8a9 2fbe fbef 25be
00000080: 4275 1a3d b629 573c 6ecb 97bd c75e 3abe
00000090: 9694 87bd 6844 e7bb be45 e9bd 0259 be3c
000000a0: 700a 6fbd ed4c 543d 4498 edbd 6fab 21bd
000000b0: 5c00 b5bd 3310 75be 4b4f bfbb e00e 953d
000000c0: d61a 8dbd 1220 89bd 7d12 34be f2fb b3bd
000000d0: 9256 31be f936 44bd 82e0 283d 2de7 e2bc
000000e0: d594 303f f06d 89bd 5f47 33be 8bb1 cfbb
000000f0: ca96 893e 43c7 b1be 1857 bbbd da76 38bf
00000100: 6b09 e5bd 3f33 4b3c 8e05 84bd 291c a4bc
00000110: 81a1 903e 49a0 4dbd c7eb 10be 919c 2bbe
00000120: 8702 89be ff64 a33d 1720 7bbd 9d83 15be
00000130: d608 95be 9af9 623d c5c1 91be 46b8 a13d
00000140: 9814 183f a964 8c3d 3e3a a8be 8463 d3be
00000150: e3e6 e13d f935 68be a717 c8be bd05 cabd
00000160: c152 03bf 01c3 73be 1370 1d3e bc03 a8be
00000170: 10ec dcbf 31ee 28be 9e04 e93b 9a23 71bd
00000180: e3ac 633d 921c b53d 46e4 803d 04f3 8abe
00000190: f7e1 58bd 2e90 0d3d 9ae5 343e 01f9 7abc
000001a0: ae99 ae3d e75b 60bd 3133 00b8 a29f 47bd
000001b0: daf7 473e 03ff eebe af1e 2cbd ef44 7d3d
000001c0: 4b89 7c3d 0657 bb3c 0d59 c3be 2914 fa3d
000001d0: 5f87 df3d e951 1dbc 3761 33be 18b5 0f3d
000001e0: 76d8 e8bd dc63 1abe c854 87be 596d 8bbd
000001f0: 4493 fb3e 6273 1a3e c948 25be 1cb5 b4bf
00000200: b921 3ebd 44d9 4ebd 9bc8 13be e8bf 303c
00000210: 41ff d9bb f7d4 70bd 554a e5bc 5390 a5be
00000220: 15ed 3b3f 97a1 4f3e f298 0fbe 068a efbd
00000230: 8488 2abe 4f37 1b3d 7a62 433d 3bbf 35bd
00000240: 0c1d c8be 0c90 f8be 9e37 f4be 6fea 7e3d
00000250: e4a4 8abc 2c78 16be 9ea9 21bf 3fec 02be
00000260: 8911 b7be f989 6dbc 13c1 26be f59f e9bd
00000270: 2eb7 8dbe d551 93bd 7679 27bf 9e54 d1be
00000280: 2c90 adbb 1e1c 04be 0210 50be 9380 85bd
00000290: 1a14 9f3d 7772 d0bb 6949 43bd 9c47 09be
000002a0: f064 373c 16ca e5bd 9e95 c2bc 7de9 953c
000002b0: f289 673d 1819 2cbf dc0e 19be f237 b6bd
000002c0: 24dd 62bd 0f78 f73c cc4b cabd 2e85 903c
000002d0: f394 87bd 88fb 5abf d596 d1bd de01 73bf
000002e0: 25a0 46bd 729d 353d 563d e83c cb27 70be
000002f0: 47fa 23bc ae43 5bbd a8f2 8ebd a83f 16bf
00000300: 9839 dc3c 4fdd c83d 6b7f 813c ab7a 8ebd
00000310: 3084 7dbc 8ec7 ebbd 9e28 d8bb e45f f8bd
00000320: a453 183e 3e8c f8bd 7e11 abbd 5c78 fabd
00000330: bf9c 26be 85ef 6ebe c9f6 033d c924 a9be
00000340: f85e c03d 369f 933c 1b0f 28bf 8306 b4bc
00000350: c46a 1ebd 4af1 5d3e 18be 27bd de6d 483e
00000360: 114d d2be e450 f6bc da34 7fbd 9eb2 de3d
00000370: e19d e9be 79cf aebd c1b2 b9be ae25 aebe
00000380: 19f0 443d 2845 303d bf3b c63d 1733 efbd
00000390: a00b ae3b 6048 993c 9788 e8be 0817 d3be
000003a0: 40dd f8bb 44df 563d 71a2 80be 801a 12bd
000003b0: 8244 d2bd 85dc 30bf a8c5 7b3d 241a 23bd
000003c0: ceda bbbd 0c8e 3bbd b2c6 4bbe a60f b1bd
000003d0: 4055 2b3b 39c8 4bbd 9a6d 0d3d 47dd 26bd
000003e0: d01c 72bc d43c e8bd e033 86bd 308d 013e
000003f0: 32b7 4f3d 770b 6abc 08db 7abd ff30 2dbf
-0.028309219 0.047286365 -0.077291586 -0.078530215 -0.17698184 -0.11060379 -0.14657229 -0.09070277
-0.25373885 -0.16492155 -0.018418746 -0.05459329 0.14143163 -0.0068304446 -0.10061414 -0.124635674
-0.18734682 -0.10990782 -0.17635973 -0.1701962 0.017786933 -0.33038267 0.0047215996 0.01145805
-0.096834585 -0.13527562 -0.09351964 -0.13818002 -0.89537436 -0.23987198 -0.17154634 -0.16204827
0.037709482 0.013132503 -0.07411848 -0.18200217 -0.066201374 -0.007057715 -0.113902554 0.023235802
-0.058359563 0.051831175 -0.11601308 -0.039470132 -0.08837959 -0.23931961 -0.00583831 0.07278228
-0.06889884 -0.0669557 -0.17585178 -0.08788289 -0.1731818 -0.04790399 0.041229732 -0.027698124
0.689771 -0.06710422 -0.17507695 -0.0063383034 0.26872855 -0.34722337 -0.09147471 -0.72056353
-0.11183437 0.012402355 -0.06446372 -0.020032959 0.28248218 -0.050201688 -0.14152442 -0.16758944
-0.2675974 0.07978248 -0.0613099 -0.14600988 -0.29108304 0.05541382 -0.28468147 0.078964755
0.59406424 0.06855137 -0.32856935 -0.41286862 0.11030366 -0.22676839 -0.39080545 -0.09864376
-0.5129815 -0.23804857 0.15374784 -0.3281535 -1.725954 -0.16497113 0.007111146 -0.058871843
0.0555848 0.0884334 0.0629354 -0.2713853 -0.052949872 0.03456133 0.17665711 -0.015318156
0.08525406 -0.054775145 -3.0565254e-05 -0.048736222 0.19528142 -0.46678934 -0.04202145 0.06183332
0.06165437 0.022868644 -0.38153878 0.122108765 0.10914492 -0.009602048 -0.17517553 0.035084814
-0.11369412 -0.15077156 -0.2643187 -0.06807966 0.49135792 0.15083078 -0.16141047 -1.411777
-0.04641888 -0.05050017 -0.14431994 0.0107879415 -0.006652743 -0.05879685 -0.027989546 -0.32336673
0.73408633 0.20276485 -0.14023188 -0.11696248 -0.16653639 0.037894543 0.047701336 -0.044371825
-0.3908466 -0.485474 -0.47698683 0.062235292 -0.01692433 -0.1469428 -0.6314944 -0.12785433
-0.35755566 -0.014498227 -0.1628459 -0.114074625 -0.27678818 -0.071933426 -0.6541971 -0.4088487
-0.0052967276 -0.12901351 -0.20318606 -0.06518664 0.07767506 -0.0063613015 -0.04767743 -0.13406223
0.011193499 -0.112201855 -0.023752984 0.018299812 0.05652804 -0.6722579 -0.14947075 -0.088973895
-0.055386677 0.030208616 -0.09877738 0.01764163 -0.06620207 -0.85540056 -0.10233847 -0.94924724
-0.04849257 0.044339605 0.02834956 -0.2345268 -0.010008401 -0.05353134 -0.06979877 -0.5869088
0.026882932 0.09807836 0.015807828 -0.06956991 -0.0154734105 -0.115126714 -0.006596639 -0.12127665
0.14875656 -0.12136124 -0.08352946 -0.12229988 -0.16270731 -0.23333557 0.032217775 -0.33035877
0.09393114 0.018020254 -0.6564805 -0.021975761 -0.03867604 0.21674076 -0.040952772 0.19573161
-0.41074422 -0.030067869 -0.062306263 0.10873912 -0.45628265 -0.08535666 -0.3626919 -0.34013122
0.048080537 0.043034703 0.096793644 -0.116796665 0.0053114444 0.018711269 -0.4541671 -0.4122851
-0.0075947344 0.052459016 -0.25123933 -0.035669804 -0.10266973 -0.69086486 0.061467797 -0.03981985
-0.09172593 -0.045789763 -0.19900015 -0.08645563 0.0026143342 -0.049751494 0.034528352 -0.04073837
-0.014777377 -0.11339727 -0.06552863 0.12651515 0.050711818 -0.01428496 -0.06124404 -0.6765289

layers.6.bias f4 [128]
00000000: a85b 89bf b963 0dc0 37db 9abf 8712 e4bf
00000010: 13df 4fbf fe7b bcbf a1fb dcbe ed17 f9bf
00000020: 0708 43c0 311e 05c0 a993 9ebf a54d 43c0
00000030: f45c 55bf ad14 f0bf 2c27 b4bf 1412 12c0
00000040: d4cd dcbf 19e6 78bf d3b7 fdbf 9195 0ec0
00000050: e7a8 82c0 13c6 c1bf a4cb 4b40 a0a9 d5bf
00000060: 98b5 51bf 34ec f7bf 7e6e 38c0 5abd 41c0
00000070: f868 29c0 6165 58be 5d39 663f 714b 2ec0
00000080: b54e b9bf 8840 82bf e63c 8bbf 073b 3cc0
00000090: 3771 4ec0 cd11 adbf 7d15 14bf e36d a5bf
000000a0: 813b 01c0 3e8e d6bf 54d6 bfbf 4dd3 79bf
000000b0: 1aff 11bf 86e6 f6bf b2b9 17c0 a6d6 20c0
000000c0: d28a 52c0 3e80 36bf b054 1ac0 d51c 98bf
000000d0: b057 05c0 401a dabf f071 39bf 411c 2ac0
000000e0: ef94 e8bf e596 e1bf 09f7 9bbf 4521 02c0
000000f0: c282 6dbf e852 abbf 2620 bbbf f641 6dbf
00000100: 8b28 98bf f0e4 d4bf 3c20 80bf b0b7 c3bf
00000110: d9f1 16bf 1b26 00c0 17fd adbf 01fb 9bbf
00000120: 565d f0bf 01e5 8abf 3a8a a5bf 7a1f e9bf
00000130: 4d0a 91bf e826 fcbf b215 abbf d909 06c0
00000140: dbfe a9bf 510c c8bf d826 f0bf 79c0 2dbf
00000150: 3b23 69bf 86b8 86bf c402 0ebf 6a47 04c0
00000160: 28dd a5bf 2c43 90bf ca6b 1fc0 918f ebbf
00000170: d380 69c0 221f 81bf 7b92 8ebf f7a0 ccbf
00000180: 4660 d9bf 6ef9 a9bf bfd9 0fc0 0b1a 5ebf
00000190: 8802 bdbf 5dd6 11bf 38e2 e0bf 2df6 44bf
000001a0: 14a9 7cc0 7a6e 00c0 5df0 f0bf 8de2 d5bf
000001b0: 25a2 48bf 9b32 11c0 1fbb 12c0 a438 aebf
000001c0: f14b 8fbf 4eee 17c0 6945 31bf a236 e6bf
000001d0: e597 8cbf 7fc1 dfbf 9b70 44bf b072 3cc0
000001e0: 69ac 3bc0 9970 65bf e6c2 8abf f980 eebf
000001f0: 0cb0 d7bf dd45 aebf f828 fdbf 4d23 cbbf
-1.0731096 -2.2092116 -1.2098149 -1.7818154 -0.8119976 -1.472534 -0.43160728 -1.9460427
-3.047365 -2.0799677 -1.2388812 -3.051614 -0.8334496 -1.875631 -1.4074454 -2.2823534
-1.7250314 -0.972261 -1.9821724 -2.2278788 -4.083118 -1.5138572 3.1843042 -1.669239
-0.81917715 -1.9368958 -2.881744 -3.027182 -2.6470318 -0.21132423 0.8993128 -2.7233546
-1.4477144 -1.0175943 -1.087796 -2.9411027 -3.22566 -1.3521057 -0.5784529 -1.292416
-2.0192568 -1.6762159 -1.4987283 -0.97588044 -0.5702988 -1.92891 -2.370709 -2.513101
-3.289723 -0.7128943 -2.411419 -1.1883799 -2.083477 -1.7039261 -0.7243948 -2.6579745
-1.8170451 -1.7624174 -1.2184764 -2.0332806 -0.92777646 -1.3384676 -1.4619186 -0.92678773
-1.1887373 -1.6632366 -1.0009837 -1.5290432 -0.5896278 -2.0023258 -1.3592862 -1.2185975
-1.8778484 -1.0851136 -1.2932808 -1.8212731 -1.1331269 -1.9699373 -1.3365996 -2.094351
-1.3280901 -1.5628759 -1.8761854 -0.67871815 -0.9106938 -1.0525062 -0.5547297 -2.0668588
-1.2958117 -1.1270499 -2.490954 -1.8403188 -3.6484878 -1.0087626 -1.1138452 -1.5986623
-1.6982505 -1.3279245 -2.2476652 -0.8675849 -1.4766397 -0.5696772 -1.7569036 -0.76938134
-3.9478197 -2.006743 -1.8823353 -1.6709763 -0.7837241 -2.2687137 -2.292671 -1.3611035
-1.119505 -2.37392 -0.69246536 -1.7985423 -1.0983855 -1.7480925 -0.7673432 -2.9445
-2.932398 -0.89624935 -1.0840728 -1.8633109 -1.68506 -1.361507 -1.9778128 -1.5870148

layers.8.weight f4 [4, 128]
00000000: e614 cbbc 7dc7 ffbe c773 69be 28f2 423e
00000010: 58fb 24bf 4b38 abbe 2a35 c8be 8fca 76bf
00000020: edbd e03e b858 cebe 70c5 773d d182 e23e
00000030: b48f a2bf 88f7 be3c a555 063e c1c5 38be
00000040: 7869 a4be aff1 acbe 3feb 36bf b655 c6bd
00000050: a3c9 73be 08a5 b0be b7a0 123f 17c1 2e3e
00000060: 3bcc d7bd 2e01 7e3e 6b15 02bf 2726 003f
00000070: 547b 42be f534 d3be aad9 963d 2c42 923f
00000080: 775e b7be 9e6b 583e 1113 9bbe 9739 113d
00000090: 0e7a 94be a7b5 97bd 364c 8c3e ceaa 6bbf
000000a0: e022 c63b c5e7 123a c47a 68be 91b5 bfbe
000000b0: 4efc cb3d ea6c 86bc 91a8 dc3d 4e97 193f
000000c0: 3f27 7abe 7373 cebe 6181 a4bf 937a e1bc
000000d0: 3a21 e6be 7f3b 683e 0f66 5b3e e2dd 95be
000000e0: 3c31 d63e b7e1 993f 4de6 38be ede6 2840
000000f0: 90e6 08bf 166e 66bf f2ff ccbe 7bd6 6cbf
00000100: 6960 e1be 9d9a 12be 8d42 ed3e d4ff d6bd
00000110: a48e 0d3f ab7c 2fbf 36f9 933e b204 49bf
00000120: a3b1 bb3e 47d2 b2bc e812 543e d0ca fe3d
00000130: 6892 903e 327d 9fbe 9ebf 92bd e4d0 1a3e
00000140: ec75 a13d 5892 9fbe 9c77 9ebe 2ce9 21bf
00000150: 02bb a4be 2cd5 30bf 42ad 8abe 6eb2 86bf
00000160: b7a8 c7c0 90c1 61be f4e0 81be 9c55 4f3d
00000170: 08ff 043f 10af 5c3e 4916 8c3e a9b5 3bbe
00000180: 5151 bdbd e4fe b4bf 52a7 b0be 34d1 d33e
00000190: 3216 d53d 7179 893d 161a 9cbe 0b6e 12bf
000001a0: 661e bc3e ec3d 1c3f 13c5 3e3e 68ee be3d
000001b0: 89b5 c43e b413 74be d881 afbd 40d2 bfbe
000001c0: 089a 03be 4cba 5dbd 4f62 173f 8256 ddbd
000001d0: 12a6 24c0 1f43 f83e cd4c 1c3e 8078 8abe
000001e0: e7f1 00be 2f26 81be 50c9 6d3e e476 883e
000001f0: 61b7 cd3e f3fd 4fbe 6b49 6a3d 5906 96be
00000200: e9cd 7cbc db9b d8be 6a4e 07bd 31e4 9dbe
00000210: 5c2c a0be 2cdf 6abd a359 ad3d 4f17 84be
00000220: dfbc 9ebe 6ce4 693e f061 7dbd 2a41 d7bd
00000230: 714b 0cbf 4257 773e ab62 fb3b 5bd1 2abd
00000240: 4b8d 153e 7453 b6be a43f ce3c a257 b83d
00000250: 653f f03d 8d96 27bd 0ebf df3e 718c 0a3e
00000260: 1387 1c3d a5b9 053c ecb5 23bf 7503 0abe
00000270: 6e38 31bf fe52 5ebe 3bd9 423e 4141 8b3c
00000280: db2b 963e a0e1 dfbc 2a4a 52be 864a 03be
00000290: 66e8 90be ce2e 883e bbb5 f6be d2fb 15be
000002a0: 54c5 6dbd 5a4b fc3e 1499 c43d 5d87 09bf
000002b0: 70d5 46be ffe9 433e dc96 92be 0a14 953d
000002c0: 187c 613e e797 b23e 4a1a 943a dfb0 b3be
000002d0: 8bc2 2fbe 9fb7 2bbe f818 dcbe 54fa f03c
000002e0: c8b5 933d 1c4a ce3d 78c7 963e e175 96be
000002f0: 8d6f 70be b5ff a93e 79c1 debe 66f4 80be
00000300: a566 033d 5eaf 3fbd 4ca1 773d e4f6 3ebe
00000310: cfbc 3dbf edd5 87be d6a4 313e 436b 80be
00000320: b263 71be 12b9 223e c046 d3bd b8b1 b8bd
00000330: b3e2 1d3e 689b 1ebf 7595 6c3e a765 6fbd
00000340: 6be2 55be 95df 3abe c475 a03e 4d03 eebe
00000350: 88ab 2abe 2497 c3be bae4 11bf 159a e13c
00000360: e4ad babd feca 22be 72b2 cebe ad01 84be
00000370: 88bc 123e 86d1 a4be 4d8d 033e a7b5 9abe
00000380: 816a b1bd 09b4 6d3f a562 28bf 15b6 3ebe
00000390: 8c0f 21bf a9c3 b5be 12da f33d 7c54 84bd
000003a0: 3119 68bf e5c2 1b3e 8d8a 52be bdd8 85be
000003b0: a415 8b3e 8925 e03d fec0 b4be c4b2 51bf
000003c0: 2c82 81be aece b83d c720 2ebd 72ed c83d
000003d0: b08e bebe b763 983e cb6d 2c3d 09a8 17be
000003e0: 9526 6fbd 6377 31bd 3903 003d ac86 7e3e
000003f0: da14 5cbe e3f8 7abe d960 2bbd 9c92 42bc
-0.024790239 -0.49956885 -0.22798072 0.19037688 -0.6444602 -0.33441386 -0.3910306 -0.9640283
0.43894902 -0.40302062 0.060491025 0.4424043 -1.2700105 0.023311391 0.13118608 -0.18044187
-0.32111716 -0.3377814 -0.7145271 -0.09684317 -0.23807387 -0.3450091 0.5727648 0.17065845
-0.10537001 0.24805138 -0.5081393 0.50058216 -0.18992358 -0.4125134 0.07365735 1.1426444
-0.35814258 0.21134803 -0.30287984 0.035455313 -0.2899937 -0.07407694 0.27401894 -0.920575
0.006046638 0.00056039944 -0.22703081 -0.37443212 0.09960233 -0.016409356 0.10774339 0.599965
-0.24429034 -0.40322456 -1.2851983 -0.027524268 -0.44947225 0.22678946 0.21425651 -0.29270846
0.41834438 1.2022008 -0.18056603 2.6390946 -0.5347681 -0.9001173 -0.4003902 -0.9251477
-0.44018868 -0.14316793 0.46339837 -0.10498014 0.5529578 -0.68549603 0.2890107 -0.7852279
0.36658964 -0.021828784 0.20710337 0.12441027 0.282367 -0.31150204 -0.07165454 0.15118748
0.0788382 -0.3116634 -0.3095063 -0.6324642 -0.32173926 -0.69075274 -0.2708531 -1.0523202
-6.239345 -0.22046494 -0.25366938 0.050618753 0.51951647 0.21551156 0.27360752 -0.18331017
-0.092440255 -1.4140286 -0.34502655 0.41370547 0.10404624 0.06712616 -0.30488652 -0.5719916
0.36741942 0.61031985 0.18629865 0.09322816 0.3841975 -0.23835641 -0.085696876 -0.37465096
-0.12851727 -0.054132745 0.5913438 -0.10807516 -2.5726361 0.4848871 0.15263672 -0.2704506
-0.12592278 -0.25224444 0.23221326 0.26653206 0.4017897 -0.20311718 0.057198923 -0.29301718
-0.015429952 -0.42306408 -0.033033766 -0.3083816 -0.31283844 -0.05734174 0.084643625 -0.25799033
-0.31003472 0.22841042 -0.06186098 -0.10510476 -0.54802614 0.2415438 0.0076716742 -0.041703563
0.1460468 -0.35610545 0.02517683 0.0900109 0.117308415 -0.04091506 0.4370045 0.13530137
0.038214754 0.008161937 -0.63949466 -0.13477881 -0.6922673 -0.21711347 0.1902818 0.016998889
0.29330334 -0.027329266 -0.20536104 -0.12821397 -0.28302306 0.2659821 -0.48185524 -0.14646843
-0.058049515 0.4927624 0.0959951 -0.5372217 -0.19417357 0.19132231 -0.28630722 0.07279213
0.22019994 0.34881517 0.0011299339 -0.3509588 -0.17164056 -0.16769265 -0.429878 0.02941624
0.072124064 0.10072729 0.29449058 -0.2938681 -0.23480053 0.332029 -0.43506983 -0.2518646
0.03208031 -0.046798103 0.06045656 -0.18648869 -0.74116224 -0.265304 0.17348036 -0.25081834
-0.23573187 0.15890911 -0.10316229 -0.09018272 0.1541851 -0.6195588 0.23103888 -0.058446553
-0.20887153 -0.18249352 0.31339848 -0.46486893 -0.16666996 -0.3820125 -0.56989634 0.027539292
-0.09115198 -0.15897748 -0.40370518 -0.2578253 0.14329731 -0.32191104 0.1284687 -0.30216715
-0.08662892 0.92852837 -0.6577552 -0.18624146 -0.6291435 -0.3550084 0.11906828 -0.064614266
-0.9066344 0.15211065 -0.20560665 -0.2614192 0.27164948 0.10944659 -0.3530349 -0.819134
-0.25294626 0.09023796 -0.042511728 0.09810914 -0.37218237 0.29763576 0.042096894 -0.14810194
-0.058386404 -0.043326747 0.031253073 0.2485606 -0.21492329 -0.24509005 -0.041840408 -0.011875775

layers.8.bias f4 [4]
00000000: 8b70 43c0 86b0 32c0 9e67 30c0 5f7d 32c0
-3.053744 -2.7920241 -2.7563243 -2.788902

layers.0.weight f4 [128, 37]
00000000: 6377 48c1 5c21 01c1 b2f7 483f b938 25c1
00000010: 4db4 e0c1 7696 73c1 1b7b 3540 bd11 eac0
00000020: 1d9d 25c1 85ff c840 c34d fe3f 626d b9c0
00000030: c6cb 3ac1 0510 60c0 03aa e03d 663e f7c0
00000040: a19f 4340 8e05 07c1 5f6d 07c1 5a8f 403f
00000050: 80ef 09be 67e3 21c1 9628 6cc0 563e 3dc1
00000060: 3e09 9fc0 b8b6 69c1 da28 fdc0 b79a 983f
00000070: d3e3 57c1 ca75 d4bf 0165 7ec0 f9d9 20c1
00000080: 28d6 17c0 d4f1 1dc1 379f ddc0 975b 6b40
00000090: a970 1d3f 3187 b63f 3319 c0c0 a080 a2c0
000000a0: 5767 0bc0 6423 16c1 487b 56c1 792c 26c0
000000b0: df53 85bf d094 2ec0 e87e 58c1 1d4b fb40
000000c0: 498b 24c0 4be7 8fc0 1c34 01c1 4368 0ac1
000000d0: f838 e6be d5b5 67c0 a318 c4c0 bdf4 b23f
000000e0: 37c4 d4c1 cff4 05c0 e263 0540 0c73 99c0
000000f0: 7ed2 bfc0 30b8 99be 39f9 b9c0 90d4 9abf
00000100: fe43 043f ce65 08c1 ae70 f5c0 9ea4 83c0
00000110: a04a 6bbf d9dc f83d 503f 1dc1 4773 8fc1
00000120: 6647 0240 3b98 9e3c 643d 5abd 31e2 ebbe
00000130: 1225 b1bf 2922 f53e 202d 19be 8d0d 6cbe
00000140: 9c30 03bf d067 00bf 186b 9abf 6821 59bf
00000150: 0095 5cbf 96e5 77bf 7f1d 40bf 096a 753f
00000160: 1c30 5abf 5ac4 3abf 3e84 f23d 2b01 87bf
00000170: 8587 23bd 643f 22bf c2ac b0bf 40e0 9dbe
00000180: d393 03bf 87ec 59be 7e61 3dbf 11fd a6bf
00000190: 0538 aabf 20d4 92bf 0beb de3d 15cf a8bd
000001a0: af97 d4be 05b0 af3e 731a c5bf d7ca c9bf
000001b0: b306 41bf 49d5 e03e 52c9 38be 6b3b c8be
000001c0: 12a6 bbbf a123 2abe ddca 54bf 5b40 e8bf
000001d0: fffc cc3f 3973 aec0 8b5f 6a40 d8a0 25c1
000001e0: af91 6bc2 3381 cbbf 8fe6 5ac0 397c 0fc0
000001f0: f19c 41c0 bad3 55c0 df78 4a40 3082 71bd
00000200: c71b 2b40 b2f4 59c0 4f18 97c1 e304 17bf
00000210: 0bce d93c cf2e 99be eb73 00c0 685f 78bf
00000220: a0a8 9e40 3466 e1c0 6f7a e93f 0e09 0cc1
00000230: 48bc afc2 97d2 cbbf 6eb7 10c0 d4d8 b0be
00000240: 56b5 8ebf 3d84 85bd ab2f af3d 7401 3b3f
00000250: 4d18 e5c0 7b46 1c3f 293e 28c1 2754 dc3d
00000260: 071c 8040 8a0c b6be 7346 c6c0 1691 03c1
00000270: 3fa6 563f 4699 78c0 6337 c2bf 4e28 f3bf
00000280: e8e0 50c0 cf0b d73f 7634 bbc0 d796 1a3e
00000290: 6b4a 40c0 8ba5 42c0 3638 31c0 46fb 80c0
000002a0: 48d1 a9bd 5dc2 64be c745 08c0 28f6 dac0
000002b0: 2a5c 3cc1 ba67 32c0 4a9d 7ac0 ae0c 0e3f
000002c0: 4516 79c0 1a2c 8a3f 56a5 00c1 82ff 0f3f
000002d0: 43dc 583f 17d4 15c1 c887 16c0 b017 a1bf
000002e0: 7709 17bf 0948 9d40 dd39 5740 7a24 2040
000002f0: b027 96bf bf9a c4c1 5de4 94c0 7baf 7940
00000300: 3cea b03f 0154 14c0 cde0 3dc1 b4b5 f2c0
00000310: e411 abbe d63f ecbf 7b11 3fbf 95e1 b9c0
00000320: e6f8 f1be d7f1 b840 d1b6 193f 4de9 86c0
00000330: 6a85 12c2 d9c9 3cc0 60a8 1a40 f85c 123f
00000340: 9f05 efc0 1b37 3dbe 621c a1bf 32b2 2940
00000350: 82b7 47bf 6df1 2bc1 7ff3 c7c1 7050 8e3f
00000360: 18cc 5840 5fe5 0cbf d9ee 1bc1 a27d d3c0
00000370: 6ffd bd3f 945d 06bf 55b7 2dbf d8b9 d0be
00000380: ad97 a2be efa8 4e3e e36f 43bf 8213 fcbe
00000390: 91be 3fbe adcf 61be c9c2 61bf 1167 e6bd
000003a0: 8ea4 f0be 6a29 b9be 9e55 b3be 8401 18bf
000003b0: f872 d4be 7c3e 15bf 022e c2be 371d 42bf
000003c0: 76af 333d e168 27bf 643d dabe feee 8dbe
000003d0: 281b 59bf be2c cbbd 7373 0bbf bf05 05bf
000003e0: 8337 4fbe 5667 72bf b9dc eb3d 8165 26bf
000003f0: 9c2d 00bf 0636 3b3e 2c87 52bf 9676 3dbf
-12.529147 -8.070644 0.78502953 -10.326348 -28.088037 -15.224234 2.8356388 -7.3146653
-10.350858 6.2811913 1.9867481 -5.7946024 -11.674749 -3.5009778 0.10969927 -7.726367
3.056618 -8.438856 -8.464202 0.7521874 -0.13470268 -10.118018 -3.6899772 -11.827719
-4.969878 -14.607109 -7.911237 1.1922215 -13.493121 -1.6598446 -3.9749148 -10.053216
-2.372446 -9.87154 -6.9256854 3.6774652 0.6150003 1.4260007 -6.003076 -5.0782013
-2.1781824 -9.38364 -13.405098 -2.5964644 -1.041622 -2.7278328 -13.530983 7.852919
-2.5710013 -4.496984 -8.075222 -8.6504545 -0.4496534 -3.6204731 -6.1280074 1.3980938
-26.595808 -2.093067 2.0842214 -4.795294 -5.994445 -0.30023336 -5.8116727 -1.2096119
0.5166625 -8.524855 -7.670005 -4.113845 -0.91910744 0.12151498 -9.827957 -17.931288
2.0356078 0.019359699 -0.053281203 -0.46071008 -1.3839438 0.47877625 -0.1495862 -0.23052044
-0.5124605 -0.50158405 -1.2063932 -0.848166 -0.86164856 -0.96834695 -0.7504501 0.9586492
-0.8522966 -0.7295586 0.118416294 -1.0547231 -0.039924163 -0.63377976 -1.3802722 -0.30835152
-0.51397437 -0.21281634 -0.73976886 -1.304598 -1.3298346 -1.1470985 0.10884675 -0.08242623
-0.41521975 0.3431398 -1.5398697 -1.5765027 -0.7540085 0.43912724 -0.18045548 -0.39107832
-1.4660056 -0.16615154 -0.83122045 -1.814464 1.6014708 -5.4515653 3.6620815 -10.3517685
-58.89227 -1.5898803 -3.4203222 -2.241957 -3.025204 -3.3410478 3.1636274 -0.058962047
2.6735704 -3.40556 -18.88687 -0.5899183 0.026587507 -0.29918525 -2.007075 -0.9702058
4.958084 -7.043726 1.8240489 -8.752211 -87.86774 -1.5923642 -2.2611957 -0.34540427
-1.1149089 -0.06519363 0.08554014 0.7304909 -7.1592164 0.61045045 -10.515176 0.10758238
4.0034213 -0.35556442 -6.1960998 -8.222921 0.8384742 -3.884355 -1.5173153 -1.8996675
-3.2637272 1.6800479 -5.850154 0.15096603 -3.004542 -3.041354 -2.7690558 -4.030673
-0.0829187 -0.22339769 -2.1292589 -6.8425484 -11.772501 -2.787581 -3.9158502 0.554881
-3.8919842 1.0794709 -8.040365 0.5624925 0.8471109 -9.36428 -2.3520374 -1.2585354
-0.5899882 4.9150434 3.3629067 2.5022264 -1.1730862 -24.57556 -4.6528764 3.9013355
1.3821483 -2.3176272 -11.867383 -7.5846806 -0.33412087 -1.8456981 -0.7463605 -5.808787
-0.47260207 5.7795215 0.6004458 -4.215979 -36.630287 -2.9498198 2.4165268 0.5717311
-7.469436 -0.18478052 -1.2586787 2.6515012 -0.78014386 -10.746442 -24.993895 1.1118298
3.387457 -0.5503749 -9.745812 -6.609086 1.4842967 -0.5248654 -0.6785787 -0.40766788
-0.31756344 0.2018163 -0.763426 -0.49233633 -0.18725039 -0.22051878 -0.88187844 -0.11250127
-0.47000545 -0.3616441 -0.35026258 -0.5937731 -0.41493964 -0.5829847 -0.37925726 -0.7582583
0.043868504 -0.6539441 -0.42624962 -0.277214 -0.8480706 -0.09920643 -0.54473037 -0.5196189
-0.2023602 -0.9468893 0.11516709 -0.6499863 -0.50069594 0.18282327 -0.82237506 -0.7400907

layers.0.bias f4 [128]
00000000: 4afc a4c0 3ae5 b4c0 9050 97bf f6d4 e93f
00000010: f7d3 88c0 82fd 54c0 5649 37bf 0eba 08c0
00000020: 3b32 76c0 6a48 78c0 8c75 b3be 063c 7abf
00000030: a756 30c0 40c2 adbf 3b8c 87bf 62c3 b3be
00000040: 2ceb 933f e2d1 4ac0 d90d 53c0 42ee 7cbf
00000050: c3f6 85bf d2c1 0bc0 14b8 57bf 4212 37c0
00000060: 3c52 d9bf 3c45 17bf 1596 65bf 3b37 9b3f
00000070: 0622 10c0 87c9 cabe 0b79 c03f ccf3 fa3f
00000080: f45e 3940 2105 eebf ceac c33f 7035 1bbf
00000090: 7b49 953f 942e 43c0 3b42 8bc0 0a02 adc0
000000a0: ae03 1dbf 5174 a9bf 6161 22bf 2cbd 2540
000000b0: 5611 afc0 687f 1abf 3914 29be aac4 35be
000000c0: 5e3e 04c0 6b8f 41bf 4ef0 b3be 6039 813f
000000d0: 6ace bbbf 79e3 adbe 9e4a 79bf 3929 90c0
000000e0: 5c30 dbbe ec30 17bf 79b9 2940 c2ee 3ec0
000000f0: 268a b33e 9368 0fc0 e35e 89c0 27ec cbbd
00000100: 5484 80c0 027e bdc0 a89f 1ebf 4866 96c0
00000110: c919 e0be 903b cfbf 2196 2dbf 218b 44c0
00000120: 10c4 80c0 9f1e 0140 ea34 39c0 5035 3bbf
00000130: 9374 03be 8e6d 88c0 16f3 7bc0 2204 22c0
00000140: f0f8 57c0 875a 47c0 069c 0740 e3f9 05bf
00000150: 596f 2bbf e35e 8abe f3e1 90c0 5780 0bc1
00000160: a3d7 95c0 bad3 c4c0 6c8f dabe ff83 0abe
00000170: e098 1fbf 896a 92c0 2589 73c0 796a 64c0
00000180: 117f 22bf 1dfa a2c0 8a7d 78bf 0272 be3f
00000190: 03cb 133f fec9 b6c0 0406 51bf 3221 92c0
000001a0: 6a37 1dc0 2b07 3d3f 6b1a 1dc0 aeac 6c3f
000001b0: a510 efbe d413 50bf ee85 5b3f c164 63bf
000001c0: a755 aec0 234a d1bf 80a8 5fbf 5455 9cbf
000001d0: 7b68 b3c0 859a 24bf 157f adbe e78b 41bf
000001e0: f5fb a0c0 1eea 7fc0 4151 a0bf 2b90 04be
000001f0: aa96 c3bf 924a f1bf 6773 03be 2c3f c9bf
-5.155797 -5.6529818 -1.1821461 1.8268116 -4.2758746 -3.327973 -0.71596277 -2.1363559
-3.8468158 -3.8794198 -0.3505062 -0.9774784 -2.7552888 -1.3574905 -1.058967 -0.35110003
1.1556144 -3.1690602 -3.2977202 -0.9880105 -1.0465931 -2.1837049 -0.84265256 -2.8604894
-1.6978221 -0.5909002 -0.8968213 1.212623 -2.2520766 -0.39606878 1.5036939 1.9605651
2.8964205 -1.8595315 1.5287111 -0.60628414 1.166305 -3.049718 -4.351835 -5.406499
-0.6133374 -1.3238622 -0.6342984 2.5896711 -5.470866 -0.60350657 -0.1651162 -0.17750803
-2.0663066 -0.75609463 -0.35144275 1.0095634 -1.4672368 -0.3396261 -0.9737948 -4.505032
-0.42810333 -0.59059024 2.6519454 -2.9833226 0.35066336 -2.2407577 -4.292833 -0.09957152
-4.0161533 -5.921632 -0.61962366 -4.6999855 -0.43769673 -1.6190052 -0.67807204 -3.0709918
-4.0239334 2.017494 -2.8938546 -0.73128223 -0.12837438 -4.2633734 -3.9367118 -2.5315022
-3.374569 -3.1149004 2.118898 -0.5233442 -0.6696678 -0.27025518 -4.5275817 -8.718833
-4.682573 -6.1508455 -0.42687547 -0.13526915 -0.62342644 -4.575505 -3.8052456 -3.5689986
-0.6347514 -5.0930314 -0.9706656 1.4878542 0.57731646 -5.7121572 -0.81649804 -4.566552
-2.4565072 0.7383906 -2.4547374 0.9245099 -0.46692386 -0.81280255 0.85751235 -0.88825613
-5.4479556 -1.635075 -0.87366486 -1.221354 -5.606504 -0.6429828 -0.33886018 -0.756041
-5.0307565 -3.9986644 -1.2524797 -0.1294562 -1.5280354 -1.8850882 -0.12836991 -1.5722404
